Regression/models/model.ckpt (torch, 6103 bytes, 5 tensors)

layers.0.weight f4 [16, 53]
0	0x3c64805e	0.013946621
1	0xbddcc6db	-0.10780116
2	0xbdeee028	-0.11663848
3	0xbdb14caf	-0.08657204
4	0xbd46abf6	-0.04850384
5	0xbe08b06e	-0.13348553
6	0xbdb5d75b	-0.088789664
7	0xbd9be1c0	-0.07611418
8	0x3da139de	0.078723654
9	0xbda9738c	-0.08273992
10	0x3dcd3969	0.10020716
11	0xbdcfaf1b	-0.101408206
12	0xbe0b40ba	-0.1359891
13	0xbc848253	-0.016175425
14	0xbd9c9b66	-0.076468274
15	0x3cde317d	0.027123207
16	0x3d5df3ea	0.054187693
17	0xbcf9b42b	-0.030481419
18	0xbdf9be21	-0.12194467
19	0x3e06f33f	0.13178729
20	0xbc4f3cc5	-0.012648766
21	0x3d0f2fa5	0.034957547
22	0xbe076242	-0.13221076
23	0xbc9c60d7	-0.019089146
24	0x3da4d24c	0.080479234
25	0xbdc4285c	-0.095780104
26	0x3d6be079	0.05758712
27	0x3dd4c822	0.10389735
28	0x3de7784a	0.1130224
29	0x3d91a77a	0.07112022
30	0x3d1e1701	0.038596157
31	0xbd48010c	-0.048829123
32	0xbd2562de	-0.04037749
33	0x3e093c0e	0.13401815
34	0x3d0b160e	0.03395658
35	0x3d1a3e98	0.03765735
36	0x3dc0e281	0.09418202
37	0x3d4af0fe	0.049546234
38	0xbda682d2	-0.08130421
39	0x3c4ff562	0.012692781
40	0x3dade9d4	0.08491865
41	0x3c240777	0.010011545
42	0x3e056168	0.13025439
43	0x3d9228e3	0.07136705
44	0x3d8ec0d0	0.0697037
45	0x3cfa4638	0.030551061
46	0x3beb0529	0.007172246
47	0xbdf74c62	-0.12075116
48	0xbe07e096	-0.13269266
49	0xbd7e2ca0	-0.062054276
50	0xbe05cabb	-0.13065617
51	0x3d4602c9	0.0483425
52	0xbd8e5ea0	-0.06951642
53	0x3e4d139b	0.2002701
54	0x3e749715	0.23885758
55	0x3e470306	0.19434747
56	0x3d4412b6	0.047869407
57	0x3d3dbe28	0.046323925
58	0xbb9bfa03	-0.0047600283
59	0xbdb5970f	-0.08866703
60	0xbe00bd0c	-0.12572116
61	0x3d36e3c9	0.044650827
62	0x3d6b0704	0.057379737
63	0x3e11c474	0.14235097
64	0x3c5f0dad	0.0136141
65	0x3e5c6cd3	0.21525888
66	0x3d582309	0.052767787
67	0xbdb5f20c	-0.088840574
68	0xbc99c7e2	-0.01877207
69	0xbbc3530f	-0.005960829
70	0xbda8404b	-0.08215388
71	0x3e404f6a	0.18780294
72	0x3e92e1c5	0.28687873
73	0x3ce785af	0.028261987
74	0xbe341e2b	-0.17589633
75	0x3d99582d	0.07487521
76	0x3d44c534	0.04803963
77	0xbc0077f1	-0.007841096
78	0xbe065dbc	-0.13121694
79	0xbdfbf1f3	-0.123020075
80	0x3d448aff	0.04798412
81	0x3c919727	0.01777227
82	0x3dc5dae3	0.0966089
83	0x3e3e178d	0.18563671
84	0x3e0d920c	0.13825244
85	0x3d2873be	0.041126005
86	0xbddd0cc6	-0.10793452
87	0xbca5fcc2	-0.020262126
88	0xbf70f3a3	-0.9412176
89	0xbefc91cf	-0.49329993
90	0xbe733e5b	-0.23754255
91	0x3e3b6155	0.18298848
92	0x3d0b29e9	0.033975516
93	0xbd8721d4	-0.06598249
94	0xbcaf7d0c	-0.021421932
95	0x3dbfd9de	0.09367727
96	0x3e06245d	0.13099809
97	0xbd87e32e	-0.06635128
98	0xbca01b27	-0.019544197
99	0xbdfc9c6d	-0.12334523
100	0xbd2e50ba	-0.042557456
101	0x3d8d80a3	0.06909301
102	0x3d617b73	0.05504937
103	0x3db3d042	0.087799564
104	0xbd691876	-0.056908093
105	0xbc738b70	-0.014864787
106	0x3eaf4818	0.3423469
107	0x3e62904c	0.22125357
108	0x3d573245	0.052538175
109	0x3d68474a	0.05670861
110	0x3d4288d2	0.047493763
111	0xbb3198d4	-0.002709915
112	0xbd345bad	-0.04403274
113	0x3db11c84	0.08648017
114	0xbc9f51d5	-0.0194482
115	0x3d8dcae4	0.06923464
116	0xbcef8bfa	-0.02924155
117	0x3e1ee30b	0.15516298
118	0x3d69015d	0.056886066
119	0x3d430108	0.047608405
120	0xbd82460f	-0.06361019
121	0xbd222ec2	-0.039595373
122	0x3cc3a1e6	0.02388091
123	0x3ddd04ea	0.10791953
124	0x3e9695f9	0.29411295
125	0x3d92c98e	0.0716735
126	0xbda3afe2	-0.07992531
127	0x3dadd816	0.08488481
128	0x3bfd9198	0.0077383034
129	0x3da01b5e	0.0781772
130	0x3cd22e4d	0.025656844
131	0x3c3fdc99	0.011710309
132	0x3bdd24e6	0.0067487834
133	0xbd51dab9	-0.05123398
134	0x3c0e4428	0.008683242
135	0x3de44307	0.11145597
136	0x3db03342	0.08603527
137	0xbdc1b283	-0.094578765
138	0x3e192713	0.14956312
139	0xbe1195d8	-0.14217317
140	0x3d2e5d47	0.042569425
141	0xbf36e2eb	-0.7144
142	0xbed530fa	-0.4163893
143	0xbf1966a5	-0.5992225
144	0x3d8a9639	0.06766934
145	0xbe21a807	-0.15786754
146	0xbd9f5052	-0.07778992
147	0xbd613b92	-0.05498845
148	0x3de921cf	0.113834016
149	0xbd86b231	-0.06576956
150	0x3db73e9f	0.08947491
151	0x3d13da9f	0.036097165
152	0xbce81ac8	-0.028333083
153	0xbcd42190	-0.02589491
154	0xbe36baa5	-0.17844637
155	0x3db70fbc	0.08938548
156	0x3d2a3c22	0.041561253
157	0x3b088125	0.002082893
158	0xbc67c17a	-0.0141452495
159	0x3c88ee1b	0.0167151
160	0x3d6d8117	0.057984438
161	0xbd8598ab	-0.0652326
162	0x3d1b3191	0.037889067
163	0xbd8fd98b	-0.07023915
164	0x3dfc78fc	0.123277634
165	0x3c136911	0.008997218
166	0xbdd53a92	-0.10411562
167	0xbd05e57c	-0.032689556
168	0x3db981f5	0.090579905
169	0x3cc4079e	0.023929413
170	0x3dbd6f0f	0.09249698
171	0x3dacd1ac	0.08438429
172	0x3de352d8	0.110997856
173	0xbd4d32ef	-0.050097402
174	0xbe083f41	-0.1330538
175	0x3d22eb79	0.039775345
176	0x3df88aaa	0.12135823
177	0x3d9b583c	0.07585189
178	0x3d86efbe	0.06588696
179	0xbde38616	-0.11109559
180	0xbdd96c9a	-0.10616417
181	0xbb1a2ca2	-0.0023525138
182	0xbd7126b6	-0.05887481
183	0xbd888508	-0.06665999
184	0x3c1cab16	0.009562274
185	0xbc044507	-0.008073098
186	0xbcd760d6	-0.026291292
187	0xbdc2fb3b	-0.09520575
188	0x3e00ec0d	0.12590046
189	0x3d25fe2c	0.0405256
190	0xbd995eeb	-0.07488807
191	0xbd336acc	-0.04380302
192	0xbd9c8d1b	-0.07644101
193	0xbc8dd5c1	-0.01731384
194	0x3d5b6b51	0.05356914
195	0xbddc81ab	-0.1076692
196	0xbdec1c03	-0.1152878
197	0x3cfc8f22	0.03082997
198	0xbcc6f97c	-0.024288885
199	0xbde947a8	-0.113906205
200	0xbd6429f8	-0.055704087
201	0x3d85178f	0.06498634
202	0x3dbf255a	0.09333296
203	0x3c28e7f0	0.010309204
204	0x3e0386bb	0.12844364
205	0x3d5d65eb	0.054052275
206	0xbd770967	-0.0603117
207	0xbd94c9cd	-0.07265053
208	0xbdb1dcee	-0.08684717
209	0xbd01d41b	-0.03169642
210	0xbdf69923	-0.12040927
211	0xbdb64919	-0.08900661
212	0x3d84c416	0.06482713
213	0xbda5acb1	-0.08089579
214	0xbdba228a	-0.09088619
215	0xbdb55d45	-0.088556804
216	0xbddb0549	-0.106943674
217	0xbd7fc0f2	-0.062439866
218	0xbd4171be	-0.047227614
219	0x3d9fa75a	0.07795592
220	0xbc3d33f1	-0.011548028
221	0xbc97ce0d	-0.01853087
222	0x3d3d26bd	0.04617952
223	0x3d563de8	0.052305132
224	0x3dec4f4a	0.11538561
225	0xbd0af16e	-0.03392165
226	0x3dfdc3b7	0.12390845
227	0x3d8a4ea4	0.06753281
228	0x3d9510ca	0.07278593
229	0xbdacf591	-0.084452756
230	0x3d6799f3	0.0565433
231	0xbddadff2	-0.106872454
232	0xbd1fff6d	-0.039061952
233	0xbd8294c3	-0.0637603
234	0xbb1ae007	-0.0023632066
235	0xbcf90d96	-0.030401986
236	0xbd878b68	-0.066183865
237	0xbd037648	-0.032095224
238	0xbdc965f1	-0.09833897
239	0xbe08329b	-0.13300554
240	0x3d78945d	0.060688365
241	0x3d98b74c	0.07456836
242	0x3cf77fb0	0.030212253
243	0xbda9b8a1	-0.08287168
244	0xbd6e3a79	-0.058161233
245	0xbd849dd9	-0.064754196
246	0xbdd70e72	-0.10500802
247	0xbd9bd121	-0.076082475
248	0x3de34568	0.110972226
249	0xbc17ab17	-0.0092571
250	0x3d561f42	0.052275904
251	0x3c0d5f47	0.008628673
252	0xbe00c3b3	-0.12574653
253	0xbddfc2cc	-0.109258264
254	0x3e0c9188	0.13727391
255	0xbd73d477	-0.059528794

layers.0.bias f4 [16]
0	0xbe07cdb3	-0.13262062
1	0xbe08c205	-0.13355263
2	0xbe76f0c3	-0.24115281
3	0xbe036e59	-0.12835063
4	0xbde58df4	-0.11208716
5	0x3d90a3fa	0.07062526
6	0xbc380bd0	-0.011233285
7	0x3d226b9c	0.039653406
8	0x3c8749bb	0.01651465
9	0x3de423ab	0.111396156
10	0x3e26e2b8	0.16297424
11	0xbdb4b4b7	-0.08823531
12	0x3db33fb6	0.08752386
13	0xbdc7a399	-0.09748001
14	0x3de3e9e8	0.111285985
15	0xbd076b25	-0.033061165

layers.2.weight f4 [8, 16]
0	0xbd8096dc	-0.06278774
1	0xbe5378e6	-0.20651588
2	0xbdda0e8b	-0.10647305
3	0x3e3b0c32	0.18266371
4	0x3cd3e730	0.025867075
5	0x3e267aea	0.16257825
6	0x3e4aade5	0.19792898
7	0x3b9af1c0	0.004728526
8	0x3c94410e	0.018097427
9	0x3e8655e7	0.26237413
10	0xbe330b14	-0.17484695
11	0x3de8b718	0.11363047
12	0x3d57a056	0.052643143
13	0xbd4eaf20	-0.05045998
14	0xbd904e84	-0.07046226
15	0x3d9b3294	0.075780064
16	0xbe7a88b8	-0.24466217
17	0xbe855d2f	-0.26047656
18	0xbdc2cb77	-0.09511464
19	0xbde1fdc8	-0.11034733
20	0x3e4da118	0.20080984
21	0x3e40c018	0.18823278
22	0xbcd71122	-0.026253287
23	0x3d9ec9dc	0.07753345
24	0x3e90b837	0.28265545
25	0x3da1ac88	0.07894236
26	0x3e948c63	0.29013357
27	0x3e6fecc4	0.23430163
28	0x3de534c7	0.11191707
29	0x3df34d28	0.11879951
30	0x3abf2a00	0.001458466
31	0x3e60d5c2	0.21956542
32	0x3e60de7c	0.21959871
33	0x3de54abb	0.11195894
34	0x3e125735	0.1429108
35	0x3dd08c38	0.101829946
36	0x3e78829a	0.2426857
37	0xbe683ff0	-0.2268064
38	0x3e0f2485	0.13978775
39	0x3d913898	0.070908725
40	0xbda820bb	-0.08209368
41	0x3d00b9f5	0.031427342
42	0x3d2e91e2	0.042619593
43	0x3e35dfab	0.17761104
44	0xbd12e546	-0.035863183
45	0x3e418846	0.1889964
46	0x3dcd37bc	0.10020396
47	0x3e4263ba	0.18983355
48	0x3dd27940	0.10277033
49	0x3e2a726b	0.1664521
50	0xbd214091	-0.039368216
51	0x3e4acde0	0.19805098
52	0x3e731970	0.23740172
53	0xbdcb1180	-0.09915447
54	0x3e68c49b	0.22731249
55	0xbe10a3bc	-0.1412496
56	0x3c87d1f5	0.016579608
57	0x3e06f9a9	0.13181175
58	0xbe2acb04	-0.16679007
59	0x3dcb6e70	0.09933174
60	0xbe316a31	-0.17325665
61	0x3ced3590	0.028956205
62	0xbe78db9c	-0.24302524
63	0x3e451a20	0.19248247
64	0xbd5930f8	-0.053025216
65	0xbea18df4	-0.31553614
66	0xbdf4f89c	-0.11961481
67	0x3e0c604e	0.13708612
68	0xbbcca9c0	-0.0062458217
69	0xbd37dcc8	-0.044888288
70	0x3ce02e2a	0.027365763
71	0xbdfbfabc	-0.12303683
72	0xbdec0cc6	-0.11525874
73	0x3e1d18b8	0.1534146
74	0x3eb65811	0.35614064
75	0xbd5fa869	-0.054603968
76	0x3e78bf5a	0.24291745
77	0x3dcc553c	0.09977195
78	0xbe7decc0	-0.24797344
79	0xbe7cc62e	-0.24684975
80	0xbc9e3e40	-0.019316792
81	0x3e32cfaf	0.17462038
82	0x3e37d33b	0.17951672
83	0x3db01aac	0.08598837
84	0x3e3c8706	0.18410882
85	0xbdc907d4	-0.09815946
86	0xbe441c7a	-0.19151488
87	0x3c0bcac0	0.008532226
88	0xbe983320	-0.29726505
89	0x3c32d81a	0.01091578
90	0x3dd56acc	0.104207605
91	0x3dc2a962	0.095049635
92	0xbe1f4d31	-0.1555679
93	0xbe05e7d8	-0.13076723
94	0x3df5dc48	0.12004906
95	0xbe253736	-0.16134343
96	0x3e13a844	0.14419657
97	0xbe55333a	-0.20820323
98	0xbdbd4262	-0.09241177
99	0xbbc06e40	-0.005872518
100	0xbe4c62ee	-0.19959614
101	0x3d945ab8	0.07243866
102	0x3dc54dbd	0.09633968
103	0xbd9833d0	-0.074317575
104	0x3e6927d9	0.22769107
105	0xbd632297	-0.05545291
106	0x3e8d7c5e	0.27633947
107	0xbe3899ca	-0.18027416
108	0x3e3becc9	0.18352045
109	0xbe4257ec	-0.18978852
110	0xbdb7b6e8	-0.089704335
111	0x3dc7a8b4	0.097489744
112	0xbe2b7d38	-0.16746986
113	0xbebfb26d	-0.37440816
114	0xbe7666e7	-0.24062692
115	0x3d2c57c0	0.042075872
116	0x3e03780a	0.1283876
117	0x3b749280	0.0037318766
118	0x3d079e1d	0.033109773
119	0xbe7fc882	-0.24978831
120	0x3e937e86	0.28807467
121	0x3e3c3f30	0.18383479
122	0x3e18a217	0.14905582
123	0x3c49a48f	0.0123073
124	0x3de9b9a4	0.11412361
125	0xbd6cfef8	-0.057860345
126	0xbe10d358	-0.14143121
127	0xbd17f6e8	-0.037100703

layers.2.bias f4 [8]
0	0x3e3a52ba	0.1819562
1	0x3de5f6f6	0.11228745
2	0x3e21951e	0.1577954
3	0xbe06f48e	-0.13179228
4	0xbdd7e974	-0.105425745
5	0x3e6a0929	0.22855057
6	0x3e4eac66	0.20182952
7	0x3e17acf5	0.14812072

layers.4.weight f4 [1, 8]
0	0xbe03c37b	-0.12867539
1	0x3e2970e1	0.16546966
2	0x3d74eeac	0.059797928
3	0xbe6fedfe	-0.2343063
4	0x3e94b4c9	0.29044178
5	0x3df138bd	0.117784
6	0x3ec57063	0.38562307
7	0x3e84428e	0.25832027
